2.3.2
1.3.1
GeForce RTX 2070 SUPER
(810000, 230) (10000, 227)
20200127T004752
fea_size 226 layer_cols ['layer_1', 'layer_2', 'layer_3', 'layer_4']
700000 110000
batch_size 30000 num_workers 4
train_loader 24 val_loader 11
DNNModel(
  (model): Sequential(
    (0): Linear(in_features=226, out_features=3000, bias=True)
    (1): BatchNorm1d(3000, eps=1e-05, momentum=0.1, affine=True, track_running_stats=True)
    (2): ELU(alpha=1.0)
    (3): Dropout(p=0, inplace=False)
    (4): Linear(in_features=3000, out_features=2048, bias=True)
    (5): BatchNorm1d(2048, eps=1e-05, momentum=0.1, affine=True, track_running_stats=True)
    (6): ELU(alpha=1.0)
    (7): Dropout(p=0, inplace=False)
    (8): Linear(in_features=2048, out_features=2048, bias=True)
    (9): BatchNorm1d(2048, eps=1e-05, momentum=0.1, affine=True, track_running_stats=True)
    (10): ELU(alpha=1.0)
    (11): Dropout(p=0, inplace=False)
    (12): Linear(in_features=2048, out_features=1500, bias=True)
    (13): BatchNorm1d(1500, eps=1e-05, momentum=0.1, affine=True, track_running_stats=True)
    (14): ELU(alpha=1.0)
    (15): Dropout(p=0, inplace=False)
    (16): Linear(in_features=1500, out_features=1024, bias=True)
    (17): BatchNorm1d(1024, eps=1e-05, momentum=0.1, affine=True, track_running_stats=True)
    (18): ELU(alpha=1.0)
    (19): Dropout(p=0, inplace=False)
    (20): Linear(in_features=1024, out_features=1024, bias=True)
    (21): BatchNorm1d(1024, eps=1e-05, momentum=0.1, affine=True, track_running_stats=True)
    (22): ELU(alpha=1.0)
    (23): Dropout(p=0, inplace=False)
    (24): Linear(in_features=1024, out_features=1024, bias=True)
    (25): BatchNorm1d(1024, eps=1e-05, momentum=0.1, affine=True, track_running_stats=True)
    (26): ELU(alpha=1.0)
    (27): Dropout(p=0, inplace=False)
    (28): Linear(in_features=1024, out_features=512, bias=True)
    (29): BatchNorm1d(512, eps=1e-05, momentum=0.1, affine=True, track_running_stats=True)
    (30): ELU(alpha=1.0)
    (31): Dropout(p=0, inplace=False)
    (32): Linear(in_features=512, out_features=512, bias=True)
    (33): BatchNorm1d(512, eps=1e-05, momentum=0.1, affine=True, track_running_stats=True)
    (34): ELU(alpha=1.0)
    (35): Dropout(p=0, inplace=False)
    (36): Linear(in_features=512, out_features=256, bias=True)
    (37): BatchNorm1d(256, eps=1e-05, momentum=0.1, affine=True, track_running_stats=True)
    (38): ELU(alpha=1.0)
    (39): Dropout(p=0, inplace=False)
    (40): Linear(in_features=256, out_features=4, bias=True)
  )
)
0.1 10
HBox(children=(IntProgress(value=0, description='Epoch', max=10000, style=ProgressStyle(description_width='initial')), HTML(value='')))
/home/aiden/anaconda3/lib/python3.7/site-packages/sklearn/externals/joblib/__init__.py:15: DeprecationWarning: sklearn.externals.joblib is deprecated in 0.21 and will be removed in 0.23. Please import this functionality directly from joblib, which can be installed with: pip install joblib. If this warning is raised when loading pickled models, you may need to re-serialize those models with scikit-learn 0.21+.
…
        [147.1348,  17.7978,  15.9481,  79.3048]], device='cuda:0',
       grad_fn=<AddmmBackward>)
20200127T090448 0.812163688919761






  File "deep_v1_nodropout.py", line 843
    optimizer = torch.optim.Adam(model.parameters(), lr=lr)
    ^
IndentationError: unexpected indent
  File "deep_v1_nodropout.py", line 928
    nohup python deep_v1_nodropout.py &
               ^
SyntaxError: invalid syntax
2.3.2
1.3.1
GeForce RTX 2070 SUPER
(810000, 230) (10000, 227)
20200130T085142
fea_size 226 layer_cols ['layer_1', 'layer_2', 'layer_3', 'layer_4']
700000 110000
batch_size 25000 num_workers 8
train_loader 28 val_loader 5
DNNModel(
  (model): Sequential(
    (0): Linear(in_features=226, out_features=512, bias=True)
    (1): BatchNorm1d(512, eps=1e-05, momentum=0.1, affine=True, track_running_stats=True)
    (2): ELU(alpha=1.0)
    (3): Dropout(p=0, inplace=False)
    (4): Linear(in_features=512, out_features=1024, bias=True)
    (5): BatchNorm1d(1024, eps=1e-05, momentum=0.1, affine=True, track_running_stats=True)
    (6): ELU(alpha=1.0)
    (7): Dropout(p=0, inplace=False)
    (8): Linear(in_features=1024, out_features=2048, bias=True)
    (9): BatchNorm1d(2048, eps=1e-05, momentum=0.1, affine=True, track_running_stats=True)
    (10): ELU(alpha=1.0)
    (11): Dropout(p=0, inplace=False)
    (12): Linear(in_features=2048, out_features=1024, bias=True)
    (13): BatchNorm1d(1024, eps=1e-05, momentum=0.1, affine=True, track_running_stats=True)
    (14): ELU(alpha=1.0)
    (15): Dropout(p=0, inplace=False)
    (16): Linear(in_features=1024, out_features=1024, bias=True)
    (17): BatchNorm1d(1024, eps=1e-05, momentum=0.1, affine=True, track_running_stats=True)
    (18): ELU(alpha=1.0)
    (19): Dropout(p=0, inplace=False)
    (20): Linear(in_features=1024, out_features=2048, bias=True)
    (21): BatchNorm1d(2048, eps=1e-05, momentum=0.1, affine=True, track_running_stats=True)
    (22): ELU(alpha=1.0)
    (23): Dropout(p=0, inplace=False)
    (24): Linear(in_features=2048, out_features=1024, bias=True)
    (25): BatchNorm1d(1024, eps=1e-05, momentum=0.1, affine=True, track_running_stats=True)
    (26): ELU(alpha=1.0)
    (27): Dropout(p=0, inplace=False)
    (28): Linear(in_features=1024, out_features=2048, bias=True)
    (29): BatchNorm1d(2048, eps=1e-05, momentum=0.1, affine=True, track_running_stats=True)
    (30): ELU(alpha=1.0)
    (31): Dropout(p=0, inplace=False)
    (32): Linear(in_features=2048, out_features=1024, bias=True)
    (33): BatchNorm1d(1024, eps=1e-05, momentum=0.1, affine=True, track_running_stats=True)
    (34): ELU(alpha=1.0)
    (35): Dropout(p=0, inplace=False)
    (36): Linear(in_features=1024, out_features=512, bias=True)
    (37): BatchNorm1d(512, eps=1e-05, momentum=0.1, affine=True, track_running_stats=True)
    (38): ELU(alpha=1.0)
    (39): Dropout(p=0, inplace=False)
    (40): Linear(in_features=512, out_features=4, bias=True)
  )
)
0.01 100
HBox(children=(IntProgress(value=0, description='Epoch', max=10000, style=ProgressStyle(description_width='initial')), HTML(value='')))
/home/aiden/anaconda3/lib/python3.7/site-packages/sklearn/externals/joblib/__init__.py:15: DeprecationWarning: sklearn.externals.joblib is deprecated in 0.21 and will be removed in 0.23. Please import this functionality directly from joblib, which can be installed with: pip install joblib. If this warning is raised when loading pickled models, you may need to re-serialize those models with scikit-learn 0.21+.
…
        [148.0600,  17.6368,  17.3647,  80.8125]], device='cuda:0',
       grad_fn=<AddmmBackward>)
20200130T135648 0.47272029519081116
Traceback (most recent call last):
  File "deep_v1_nodropout.py", line 920, in <module>
    get_ipython().system('/home/aiden/anaconda3/bin/jupyter nbconvert --to script deep_v1_nodropout.ipynb')
NameError: name 'get_ipython' is not defined








2.3.2
1.3.1
GeForce RTX 2070 SUPER
(810000, 230) (10000, 227)
20200130T231636
fea_size 226 layer_cols ['layer_1', 'layer_2', 'layer_3', 'layer_4']
700000 110000
batch_size 25000 num_workers 8
train_loader 28 val_loader 5
DNNModel(
  (model): Sequential(
    (0): Linear(in_features=226, out_features=512, bias=True)
    (1): BatchNorm1d(512, eps=1e-05, momentum=0.1, affine=True, track_running_stats=True)
    (2): ELU(alpha=1.0)
    (3): Dropout(p=0, inplace=False)
    (4): Linear(in_features=512, out_features=1024, bias=True)
    (5): BatchNorm1d(1024, eps=1e-05, momentum=0.1, affine=True, track_running_stats=True)
    (6): ELU(alpha=1.0)
    (7): Dropout(p=0, inplace=False)
    (8): Linear(in_features=1024, out_features=2048, bias=True)
    (9): BatchNorm1d(2048, eps=1e-05, momentum=0.1, affine=True, track_running_stats=True)
    (10): ELU(alpha=1.0)
    (11): Dropout(p=0, inplace=False)
    (12): Linear(in_features=2048, out_features=1024, bias=True)
    (13): BatchNorm1d(1024, eps=1e-05, momentum=0.1, affine=True, track_running_stats=True)
    (14): ELU(alpha=1.0)
    (15): Dropout(p=0, inplace=False)
    (16): Linear(in_features=1024, out_features=1024, bias=True)
    (17): BatchNorm1d(1024, eps=1e-05, momentum=0.1, affine=True, track_running_stats=True)
    (18): ELU(alpha=1.0)
    (19): Dropout(p=0, inplace=False)
    (20): Linear(in_features=1024, out_features=2048, bias=True)
    (21): BatchNorm1d(2048, eps=1e-05, momentum=0.1, affine=True, track_running_stats=True)
    (22): ELU(alpha=1.0)
    (23): Dropout(p=0, inplace=False)
    (24): Linear(in_features=2048, out_features=1024, bias=True)
    (25): BatchNorm1d(1024, eps=1e-05, momentum=0.1, affine=True, track_running_stats=True)
    (26): ELU(alpha=1.0)
    (27): Dropout(p=0, inplace=False)
    (28): Linear(in_features=1024, out_features=512, bias=True)
    (29): BatchNorm1d(512, eps=1e-05, momentum=0.1, affine=True, track_running_stats=True)
    (30): ELU(alpha=1.0)
    (31): Dropout(p=0, inplace=False)
    (32): Linear(in_features=512, out_features=4, bias=True)
  )
)
0.01 100
HBox(children=(IntProgress(value=0, description='Epoch', max=10000, style=ProgressStyle(description_width='initial')), HTML(value='')))
/home/aiden/anaconda3/lib/python3.7/site-packages/sklearn/externals/joblib/__init__.py:15: DeprecationWarning: sklearn.externals.joblib is deprecated in 0.21 and will be removed in 0.23. Please import this functionality directly from joblib, which can be installed with: pip install joblib. If this warning is raised when loading pickled models, you may need to re-serialize those models with scikit-learn 0.21+.
…
